# Ultralytics YOLO 🚀, AGPL-3.0 license
# RT-DETR-l object detection model with P3-P5 outputs. For details see https://docs.ultralytics.com/models/rtdetr

# Parameters
nc: 80  # number of classes
scales: # model compound scaling constants, i.e. 'model=yolov8n-cls.yaml' will call yolov8-cls.yaml with scale 'n'
  # [depth, width, max_channels]
  l: [1.00, 1.00, 1024]

backbone:
  # [from, repeats, module, args]
  - [-1, 1, HGStem, [32, 48]]  # 0-P2/4
  - [-1, 6, HGBlock, [48, 128, 3]]  # stage 1

  - [-1, 1, DWConv, [128, 3, 2, 1, False]]  # 2-P3/8
  - [-1, 6, HGBlock, [96, 512, 3]]  # stage 2

  - [-1, 1, DWConv, [512, 3, 2, 1, False]]  # 4-P3/16
  - [-1, 6, HGBlock, [192, 1024, 5, True, False]]  # cm, c2, k, light, shortcut
  - [-1, 6, HGBlock, [192, 1024, 5, True, True]]
  - [-1, 6, HGBlock, [192, 1024, 5, True, True]]  # stage 3

  - [-1, 1, DWConv, [1024, 3, 2, 1, False]]  # 8-P4/32
  - [-1, 6, HGBlock, [384, 2048, 5, True, False]]  # stage 4

head:
  - [-1, 1, Conv, [256, 1, 1, None, 1, 1, False]]  # 10 input_proj.2
  - [-1, 1, AIFI, [1024, 8]]

  - [-1, 1, Conv, [256, 1, 1]] # 12
  - [7, 1, Conv, [256, 3, 2]]
  - [[-1, 12], 1, Concat, [1]]
  - [-1, 3, CSPStage, [256]] # 15

  - [-1, 1, nn.Upsample, [None, 2, 'nearest']] #16
  - [3, 1, Conv, [256, 3, 2]] # 17
  - [[16, -1, 6], 1, Concat, [1]]
  - [-1, 3, CSPStage, [256]] # 19

  - [-1, 1, nn.Upsample, [None, 2, 'nearest']]
  - [[-1, 3], 1, Concat, [1]]
  - [-1, 3, CSPStage, [256]] # 22

  - [-1, 1, Conv, [256, 3, 2]]
  - [[-1, 19], 1, Concat, [1]]
  - [-1, 3, CSPStage, [256]] # 25

  - [19, 1, Conv, [256, 3, 2]] # 26
  - [25, 1, Conv, [256, 3, 2]] # 27
  - [[15, 26, -1], 1, Concat, [1]]
  - [-1, 3, CSPStage, [256]] # 29

  - [[22, 25, 29], 1, RTDETRDecoder, [nc]]  # Detect(P3, P4, P5)
